Code/optimizeDQN_RND.pth (torch, 7704 bytes, 6 tensors)

layer1.weight f4 [32, 2]
00000000: 96ed 6fbc 4ec1 873d 4197 8f3f e9cc e3c0
00000010: e551 9bbe 6565 0641 8e1e d43d efb4 09bd
00000020: b70e 4d3d 3c80 0841 338d a8bf 6a90 4ec0
00000030: 7725 dabe ed8d 2941 0b35 1fbb 119f d4c0
00000040: 83e7 cfbd 47f0 7ebd 4ec3 ffbd d415 0b3d
00000050: dada 9b3d 1821 a13c e143 06bf 039f 5241
00000060: 450e 6d3e ecd5 6cc1 fda0 eb3d a0c8 c23d
00000070: c5cb 4ebe 2627 fd40 0d3b 033d 9082 353d
00000080: 47d7 af3c 3e0b 0fbe 0563 c13d ab68 a8bd
00000090: dbe8 103e edcd 1abe e32c c0be 3882 e940
000000a0: 702f 6cbf 0954 67c1 13ed f63d 376b cf3d
000000b0: c749 2940 295a cd41 b7cc 72be 64d6 7140
000000c0: 1822 cb3c 7e86 0f3e 24de 0d3e b01c aa39
000000d0: 011a 51bd 8bb8 753d 1c8b 423d 73d3 1b3e
000000e0: efdf c6bf c8d8 1fc1 7f06 30bd 3711 033e
000000f0: 8dcc 1d3f 0d1e 6ec1 3520 8b3c 158d 293e
-0.014644047 0.06628667 1.1218034 -7.1187634 -0.30335918 8.399755 0.1035739 -0.033619817
0.05006286 8.531307 -1.316809 -3.2275643 -0.42606708 10.59715 -0.002429309 -6.6444173
-0.10151579 -0.062240865 -0.12488423 0.033956364 0.07610102 0.0196691 -0.52447325 13.163821
0.23149975 -14.802227 0.115053155 0.095109224 -0.2019492 7.911029 0.032038737 0.044313967
0.021464957 -0.13969132 0.094427146 -0.08223089 0.14151327 -0.15117617 -0.37534246 7.297146
-0.92259884 -14.458016 0.12056937 0.101278715 2.645128 25.669024 -0.23710905 3.7787104
0.02479653 0.14016148 0.13854271 0.000324463 -0.05105019 0.059990447 0.047495946 0.1521738
-1.5537089 -9.990425 -0.042974945 0.12799536 0.61640245 -14.882337 0.016983131 0.16557725

layer1.bias f4 [32]
00000000: 64a3 8ebd b2d8 173f 9223 b03f da9a 2cbe
00000010: c34f 4e3e d9bb 1bbf cf10 c23f 9607 5c3f
00000020: e209 0fbe f2c0 1bbe ea0b 2fbe 0a30 25be
00000030: 1a99 133e 0f3f f8bd f21f cd3f a50f efbd
00000040: 9445 1abe 6f42 3fbd 9f5c e3bd 21ec af3f
00000050: b5cd 8840 9c31 2ebe f594 d43f 3e36 903f
00000060: 673f d3bd 7d85 ccbd 31f2 27be b8ae 18bd
00000070: 3b60 b33f 297d 14be 13dd a03f 4e23 01be
-0.06964758 0.59315026 1.3760855 -0.16855946 0.20147614 -0.6083351 1.516138 0.85949075
-0.13968614 -0.15210322 -0.17094389 -0.16131607 0.14413872 -0.121214025 1.6025374 -0.11672906
-0.15065604 -0.046694215 -0.111016504 1.3743936 4.2751107 -0.17011112 1.6607958 1.1266553
-0.103148274 -0.09986398 -0.16400982 -0.037276 1.4013742 -0.1450087 1.2567466 -0.12611124

layer2.weight f4 [32, 32]
00000000: c81b e33c 3318 34bf 7296 0d3f 93e8 3ebc
00000010: 2b37 d6bf bc84 cbc0 4ec5 323f 520b 803f
00000020: 6a28 11bd bf4e e93a a79d 513c 72dd 81c0
00000030: 908e 8ec0 aba1 2cbd 6db0 793f 9f47 cabc
00000040: 1218 d0bc f49a febc d116 103c 45f8 253f
00000050: d3e5 ce3e ad19 923c 8662 d8bf 2730 5e3f
00000060: 8c92 a23c 09c5 413c 681c b6bb 90dc 1ebd
00000070: ed22 f83d 6c2f 15bd 4add 8e3f bc0f 0d3b
00000080: 88e3 2c3b a311 9e40 688e 7d3e 8966 513c
00000090: 95a9 8ebb 43fc 49c0 c788 ef3e 12b9 8d3f
000000a0: 79ff 183d 739f 173d 9761 d7bc 6e23 34c0
000000b0: ae42 7240 8255 113d 9610 ccba a5d9 99bc
000000c0: 8071 be3c e0c2 113d 9dd1 da3c 363d 003f
000000d0: 86b5 033f 2d45 d3bc 2b69 b5c0 d43d a03e
000000e0: 26a4 2c3c aa34 30bb e948 e7bc db0d e73c
000000f0: 5078 7d3e 5708 fcbc b11b 1340 4f00 283d
00000100: 86ad 09bd 0277 a9bb 7882 103d af52 05bc
00000110: 1609 c6bc 222d 98bc a259 0cbd cad4 083c
00000120: 260f 83bc 33dd fb3c 7524 6f3c 64e2 603c
00000130: 9d21 9f3c ce64 e53c 1483 bbbc 2dc9 22bd
00000140: 6c52 b33c 83d0 f3bc 230f be3b a248 efbc
00000150: 3ba9 13bd 1c57 f93c 3e2d 1cbd 206a 99bb
00000160: 1b36 20bc caac 60bb 1ee9 0fbd 5f45 0abd
00000170: 3801 0cbc 3040 59bc 723d 2a3c ddfd 92bb
00000180: 1429 203c 56df 113c 84a3 4c3c 0fb7 2abd
00000190: 850d 50bc 0573 7dbc a7ef 2cbd def6 50bd
000001a0: 84d0 bbbc 7010 863b d769 08bc f7c1 0c3c
000001b0: d4bc 943b 6b91 d43c a1fd 553b ce9a 093c
000001c0: 4b66 973c 535e c2bc b335 95bc 72d2 f5bc
000001d0: 5202 05bd 6f16 22bd a6c5 e83c 4a3f 033d
000001e0: 0fd8 29bd 75c5 a3bc ec11 f4bb 258e 033d
000001f0: 806a 84bb 6ab6 70bb bc2f aabc a2d5 c2bc
00000200: fbd3 abbc 1e06 abc0 0728 2c3e be71 103d
00000210: a0e3 17c0 d5aa 4bc0 dc23 993e 197d 003f
00000220: 9566 02bd d6a0 bd3c bfdb 33bc d9da 81c0
00000230: 5160 60c0 020c 843c 981d f93e badc fcbc
00000240: dbeb 84bb b228 8abc 0a19 083c 208d 973e
00000250: 5773 1c3f 2270 023d 73f9 433e 238c 073f
00000260: 691c 913b 181b c439 74b4 8e3c 3b37 08bd
00000270: 1a48 ea3e b555 cc3b e630 cabf ba04 c5bc
00000280: 779b 073d 8812 3ebe 4230 6e3e 2cab 91bc
00000290: 9e81 c7bf f143 e1c0 0a25 e23e 76c5 9f3f
000002a0: e734 29bd 09a9 54bc c99e 0b3d 3ed4 5bc0
000002b0: ea9e 55bf 7b4d 2d3c d0f8 0f3f 6e02 f53c
000002c0: 1934 053c 6a89 743c 8d54 2ebd 9964 db3e
000002d0: 615b 0c3f affe 24bd 0066 ccbf 5107 0b3f
000002e0: a381 213d 7363 d13a 7a5f 3e3c 5a4a 2dbd
000002f0: ce99 643e 0d8a d9bc 9a8b 3540 b6ba 34bb
00000300: c14d af3c d144 e040 543a aebe 98d5 cbbc
00000310: 7172 95c0 e8d7 aa3f e12f 67bf 75cb 8c40
00000320: 5c56 903b 46f2 30bb b2ab 153d 7575 87c0
00000330: 58b2 e940 288a 86bb d644 d0bf 1e71 23bb
00000340: c803 28bd b824 983c 79de 26bd 010d 1a3e
00000350: 79aa 7d40 3fee 86bb b2c0 9dc0 9831 313e
00000360: 6caa 20bd 9e77 d6bc 1bd6 cfbc 0867 403c
00000370: c919 8040 47d6 a0bc fd8f b340 3441 243d
00000380: 7270 d93c 3656 1a40 2975 743f 7926 0c3d
00000390: 666d 8740 a7b1 0341 261e 8d3f 3f3b a2bd
000003a0: 1e04 a93b 4959 22bc f43e 21bd 8f35 1441
000003b0: 6294 8940 52d4 e83c 51c3 933f 4f47 543c
000003c0: 35f9 a33c 2182 5d3c 5994 0cbd 5054 5d3f
000003d0: be05 a3bd c704 2f3c e786 e940 1683 223f
000003e0: 3242 a73c 5e8f d23c 4f14 1fbd e0fd 52bc
000003f0: 8830 8e3e f680 de3c 3f6f 3bbf 697c b5bc
0.027723208 -0.70349425 0.55307686 -0.01165213 -1.6735586 -6.359953 0.69832313 1.0003455
-0.035438932 0.0017799957 0.012793935 -4.058282 -4.4549026 -0.042146366 0.9753483 -0.024692355
-0.025402103 -0.031079747 0.008794502 0.64831954 0.40409717 0.017834509 -1.6905067 0.86792225
0.01984527 0.011826762 -0.0055575855 -0.038784564 0.121160366 -0.03642218 1.1161282 0.002152427
0.0026380736 4.939653 0.24761355 0.012780794 -0.004353712 -3.1560218 0.4678404 1.1072104
0.037353013 0.037017297 -0.026291652 -2.8146625 3.7853198 0.035481937 -0.0015568908 -0.018780539
0.02324748 0.035586238 0.02671128 0.500934 0.5144886 -0.025789822 -5.669088 0.3129717
0.010537183 -0.002688686 -0.028233008 0.028204849 0.24752927 -0.030765695 2.2985651 0.04101592
-0.03361275 -0.0051716575 0.035280675 -0.008137389 -0.024174254 -0.018576209 -0.034265168 0.008351514
-0.015998434 0.030745124 0.014596094 0.013725851 0.019425208 0.028002169 -0.022889651 -0.039742637
0.021889888 -0.029762512 0.0058001443 -0.029209439 -0.036050063 0.030437045 -0.038129084 -0.0046818405
-0.009778525 -0.0034282678 -0.035134427 -0.033757564 -0.008545212 -0.013259932 0.010390626 -0.0044858293
0.009775419 0.008903345 0.012490157 -0.041678485 -0.012698536 -0.015469317 -0.042220738 -0.05101668
-0.022926576 0.004091315 -0.008326015 0.008591167 0.0045391116 0.025948247 0.0032652395 0.008398725
0.018481394 -0.023726618 -0.018214082 -0.030007575 -0.032472916 -0.039572176 0.028414559 0.03204278
-0.041465815 -0.019991616 -0.0074484255 0.03211798 -0.004041016 -0.003672982 -0.020774715 -0.023783509
-0.020975104 -5.3444967 0.16812144 0.035264723 -2.3732681 -3.1823018 0.2991017 0.50190884
-0.03183611 0.023147982 -0.0109776845 -4.057965 -3.5058787 0.016119007 0.4865539 -0.03086697
-0.0040564365 -0.016865108 0.008306751 0.29599857 0.61113495 0.03184522 0.19138126 0.52948207
0.0044284356 0.0003740422 0.017420031 -0.033255797 0.45758134 0.006235803 -1.5796173 -0.024050105
0.033107247 -0.18561757 0.23260596 -0.017781816 -1.5586431 -7.0395436 0.44168884 1.2482135
-0.041310217 -0.012979754 0.034086976 -3.4348292 -0.8344561 0.010577555 0.5623903 0.029908385
0.008130097 0.01492534 -0.042561103 0.42850187 0.54826933 -0.040281948 -1.5968628 0.5430804
0.03943027 0.0015975073 0.011619443 -0.042307235 0.22324297 -0.026555086 2.8366456 -0.0027577109
0.02139938 7.0084004 -0.34028876 -0.024882123 -4.67022 1.3347139 -0.9030743 4.399836
0.004404826 -0.0026999875 0.036540695 -4.233088 7.3030205 -0.004105825 -1.6271007 -0.002493925
-0.04101923 0.018572196 -0.04073951 0.15044023 3.9635298 -0.0041177566 -4.9297724 0.17304075
-0.039225027 -0.026180085 -0.025370648 0.011743315 4.0031476 -0.019633425 5.6113267 0.040101245
0.026542876 2.411512 0.9549127 0.034216378 4.2321043 8.230872 1.1024826 -0.079214565
0.0051579615 -0.009908983 -0.039366677 9.263076 4.299363 0.028421555 1.1543981 0.012956454
0.020016292 0.013519795 -0.034321163 0.86456776 -0.079600796 0.010682291 7.2977176 0.6348127
0.020417307 0.025703128 -0.038837727 -0.012877911 0.277714 0.027161103 -0.73216623 -0.02215405

layer2.bias f4 [32]
00000000: ce61 403e 09e3 793e 42cb c8bc 3ce4 76bd
00000010: bbed 523f b342 8cbc 6419 2b40 65b5 193f
00000020: 9241 b53e e119 1b40 e16a b43e 1755 753d
00000030: 27a0 8b3e 2acb 14bd 4d0a 093f f787 0e3e
00000040: e437 0d3f 042e 3b3e 85de 11bd e246 503f
00000050: 1fbd eb3e 4a21 813e e894 4abd 3f0b fa3e
00000060: dbd4 df3f 4f0b 163e 9ccf 113f 0048 4d3e
00000070: 6707 b1bb 0494 da3e 9d61 693d 51c2 e03d
0.1878731 0.24403013 -0.024510983 -0.060276255 0.82394 -0.017121648 2.6734247 0.6004241
0.3540159 2.4234545 0.35237792 0.0598956 0.27270624 -0.036326565 0.5353134 0.13919054
0.5516341 0.18279272 -0.0356126 0.8135816 0.46042725 0.2522071 -0.049458414 0.48836705
1.7486833 0.14652751 0.5695741 0.20046997 -0.0054024938 0.42691052 0.056977857 0.10974563

layer3.weight f4 [3, 32]
00000000: bb42 aebf 89e8 6040 8ae6 e6bb 26f1 4f3d
00000010: af31 72c0 333f 0bbf 60ec c23f 2e0b e140
00000020: 4dbd a440 adbc f640 cff0 51c0 12bb 4cbf
00000030: 04b8 8140 ce66 01bf 3ce0 2040 4d3d a3bf
00000040: b0e7 b940 98c5 bfbf 9fa4 b93b a356 61c0
00000050: 3a1f 9340 f3c7 ccbf 4db8 14bc c705 be3f
00000060: 863a c340 417f 98bf cf79 bd40 4877 cabf
00000070: 3073 21bf d4ac 8440 f420 8340 0e0b a2bf
00000080: 4e69 47c0 d09d 9f40 f47e 2fbd 5b75 a1bc
00000090: ab3a 2fc0 6c1b f0bf d2be 843f 472c 0041
000000a0: e026 b940 2df9 a640 6a68 7ebf 4762 06c0
000000b0: 1c9b b540 8b81 f1bf a4e2 9a40 42e9 2ec0
000000c0: c9ff dc40 91e1 3ac0 b06d c53c 1734 3ac0
000000d0: 9367 d940 f6e4 31c0 00a3 73bc 57a0 b83e
000000e0: 73b5 e0be 4cd2 1cc0 058a d840 ff2e 35c0
000000f0: 84b2 02c0 31cd b640 55b8 a240 e6a6 37c0
00000100: efac 5fc0 2ad0 1541 5b41 d63b eaeb 04bc
00000110: 5006 14bf 825d 4ec0 5a3b 8dbf cb81 0f41
00000120: 1671 c340 8858 fb40 9645 0640 7234 53c0
00000130: 8757 0c41 6766 4ec0 2e3f b840 f767 54c0
00000140: 3371 e840 aa25 57c0 b133 b53c 4c5e c3bf
00000150: 0e55 9d40 77e1 45c0 89c6 b238 b37b 26c0
00000160: c47a 1040 d770 4dc0 9ee2 f840 da63 46c0
00000170: 288e 57c0 c052 b340 5706 2941 8494 5dc0
-1.3614115 3.5141928 -0.0070465254 0.050767086 -3.7842824 -0.5439331 1.5228386 7.0326147
5.148108 7.7105317 -3.2803228 -0.79972947 4.053713 -0.5054749 2.5136862 -1.2753083
5.809532 -1.4982176 0.0056653763 -3.520913 4.597562 -1.599852 -0.009077144 1.4845513
6.100894 -1.1913835 5.921119 -1.5817652 -0.6306639 4.146097 4.0977726 -1.2659624
-3.1158023 4.988014 -0.04284568 -0.01970928 -2.7379558 -1.8758368 1.0370734 8.01081
5.7859955 5.217917 -0.99378073 -2.0997484 5.6751842 -1.8867658 4.840166 -2.732987
6.906224 -2.9200175 0.024100155 -2.9094293 6.7938933 -2.7795997 -0.014870405 0.3605983
-0.43888435 -2.4503355 6.766848 -2.8309934 -2.0421457 5.712548 5.0850015 -2.8695617
-3.49493 9.363321 0.0065385527 -0.008112887 -0.5782213 -3.2244573 -1.1033738 8.969188
6.1075544 7.854557 2.0979972 -3.300076 8.771369 -3.2250001 5.7577124 -3.3188455
7.2638183 -3.3616738 0.022119375 -1.5263152 4.9166327 -3.0918863 8.5246815e-05 -2.6013
2.257493 -3.2100122 7.777663 -3.0998445 -3.3680515 5.6038513 10.564048 -3.4621897

layer3.bias f4 [3]
00000000: ca8e 06bf 4591 0340 378e d93f
-0.5256163 2.0557415 1.6996526
