Code/optimizeDQN_heuristic.pth (torch, 7764 bytes, 6 tensors)

layer1.weight f4 [32, 2]
-0.0028154652 0.1867036 0.11268542 1.0037749 -0.0070509543 0.3283675 0.006750414 0.6026401
0.009577958 0.33575264 -1.1872351e-06 2.4043104e-05 -1.3970745e-06 -3.216671e-05 0.111059636 0.965566
8.091726e-05 0.14966516 -0.00019045829 0.0065988745 0.09606977 0.94544923 -0.0043698894 0.18739647
3.3809974e-07 5.417293e-08 -1.6639289e-06 3.8735838e-05 5.474542e-07 1.4489841e-07 0.079297595 0.879194
0.0994392 0.9491961 0.00046668807 -1.9783845 0.0943938 0.9388568 4.1134166e-07 -0.00013639913
0.08846113 0.8741541 -0.011812259 0.31195205 0.07731983 0.9076454 -5.642785e-06 -5.0676103e-05
-0.0011421313 0.015085149 6.371245e-07 5.574077e-07 0.0052398173 -0.4820974 -8.793503e-08 -3.2991102e-07
0.10367051 0.97267985 0.004673484 -0.79671085 -0.0033632529 -0.51185507 0.08938545 0.9414048
00000000: ab83 38bb 3b2f 3f3e 9dc7 e63d b27b 803f
00000010: b10b e7bb c91f a83e 9432 dd3b 9f46 1a3f
00000020: deec 1c3c c5e7 ab3e 1659 9fb5 2cb0 c937
00000030: 1d83 bbb5 beea 06b8 3c73 e33d 552f 773f
00000040: 20b2 a938 d341 193e c2b5 47b9 5f3b d83b
00000050: 3ac0 c43d f608 723f 4a31 8fbb dce4 3f3e
00000060: 1384 b534 c4ab 6833 2954 dfb5 4a78 2238
00000070: c4f4 1235 5f95 1b34 c766 a23d dc12 613f
00000080: c7a6 cb3d 84fe 723f d0ad f439 b43b fdbf
00000090: 8951 c13d eb58 703f 5ed6 dc34 5d06 0fb9
000000a0: 1c2b b53d 90c8 5f3f 3588 41bc 2eb8 9f3e
000000b0: dc59 9e3d 735b 683f 2757 bdb6 0d8d 54b8
000000c0: 91b3 95ba b327 773c dd06 2b35 c4a0 1535
000000d0: c6b2 ab3b 78d5 f6be cbd6 bcb3 a01e b1b4
000000e0: 3451 d43d 8c01 793f 0624 993b 3ef5 4bbf
000000f0: 056a 5cbb ef08 03bf b80f b73d e8ff 703f

layer1.bias f4 [32]
0.031802896 -0.04793717 0.03077801 0.04048674 0.03452771 -2.1638787e-06 -3.6513982e-06 -0.046372008
0.03145787 -0.00051532965 -0.029000152 0.029151727 -5.121744e-07 -3.337405e-06 -4.607112e-07 -0.030021802
-0.040318273 0.10837283 -0.02910705 -9.849515e-06 -0.02711678 0.025691552 -0.03192646 -1.04139735e-05
-0.001688877 -4.356815e-07 0.049971055 -3.6392595e-07 -0.029056769 0.064037666 0.046312798 -0.030206257
00000000: c143 023d c459 44bd 2a22 fc3c 6dd5 253d
00000010: ee6c 0d3d 2737 11b6 8b0a 75b6 93f0 3dbd
00000020: f8d9 003d 3017 07ba ba91 edbc 9acf ee3c
00000030: 5b7c 09b5 2ef8 5fb6 aa57 f7b4 48f0 f5bc
00000040: c624 25bd 93f2 dd3d e871 eebc 583f 25b7
00000050: 0224 debc 1777 d23c 52c5 02bd adb7 2eb7
00000060: 4f5d ddba 9ce7 e9b4 73ae 4c3d 9a61 c3b4
00000070: 7608 eebc 2e26 833d 7db2 3d3d 1d73 f7bc

layer2.weight f4 [32, 32]
-1.1516897e-05 -1.1588267e-05 -1.2691719e-05 -1.45538e-05 -1.8035866e-05 -3.5434578e-08 -6.805176e-08 -1.2530997e-05
-7.646167e-06 -3.496296e-07 -1.1686179e-05 2.9943624e-07 9.002327e-08 -5.056465e-08 4.602879e-08 -1.2135348e-05
-6.5363533e-06 -1.2928742e-05 -6.618486e-06 -3.6537014e-07 -1.1869403e-05 -1.111032e-05 -1.2483373e-05 -3.0371214e-07
-9.878205e-07 6.121184e-08 1.053095e-07 2.789663e-08 -7.139496e-06 -6.4949813e-06 -8.008554e-06 -1.3344255e-05
0.61978704 -1.3102925 0.32524687 0.33404744 0.399031 1.0591143e-07 2.8190517e-08 -1.4412447
0.48450112 -0.001534688 -0.86483145 0.49541762 1.18330746e-07 2.9510265e-09 -1.6565412e-09 -1.3779621
-0.74147934 0.9619773 -0.66827554 -1.0451166e-06 -0.7854216 0.2392654 -0.99621207 -1.6629527e-05
-0.0023012809 -2.1459499e-08 0.9965823 1.5796402e-08 -0.78495926 1.2242692 1.1601955 -1.2530344
0.61707294 -1.3059669 0.32532668 0.33313373 0.39895102 -4.1262047e-06 -7.420313e-08 -1.4292802
0.47998148 -0.0015255423 -0.87072575 0.49057564 6.97604e-08 -2.9388327e-06 -1.4967621e-07 -1.3804998
-0.73512256 0.9656646 -0.6591554 -1.2593289e-06 -0.7742053 0.23899768 -0.99747574 -1.5825432e-05
-0.002281954 1.416617e-07 0.99148715 1.4577937e-07 -0.77379376 1.2205867 1.1610106 -1.2569367
0.62970245 -1.3147398 0.323247 0.33712184 0.4009832 -4.3036904e-05 1.07927735e-05 -1.443608
0.48499534 -0.001415913 -0.8713814 0.50476265 6.9173595e-08 -6.374753e-05 2.3397713e-09 -1.3814496
-0.74371785 0.975093 -0.67520714 1.9324923e-05 -0.7974303 0.24102877 -1.0018117 1.6918175e-05
-0.002302707 1.5718518e-07 1.0048542 1.9243684e-08 -0.7942885 1.2270988 1.1808643 -1.2660656
0.62875366 -1.2957858 0.330551 0.33521998 0.4017465 -1.3383947e-05 4.8909744e-05 -1.4348166
0.48232418 -0.0012627916 -0.8538927 0.5005926 5.360592e-08 -4.6775353e-06 -7.83596e-08 -1.3745275
-0.7292531 0.98773116 -0.6703323 0.00015641665 -0.78374773 0.24069667 -0.9931533 0.00010251449
-0.0022775494 -7.7993846e-08 0.99839777 8.221298e-08 -0.7777738 1.2253573 1.1751871 -1.2534459
-1.0494793e-07 2.770733e-10 -1.2563022e-07 -1.4365976e-07 -4.3565155e-08 -7.152313e-08 -1.2715182e-08 -1.2064197e-07
-1.0234522e-07 8.9674714e-08 -1.32266e-07 1.1195053e-08 -4.4683784e-08 8.17401e-08 1.7570933e-08 9.367509e-09
-4.433602e-08 1.2363486e-07 6.28407e-08 9.1053266e-08 -1.3781771e-07 -1.5731369e-07 -1.5246404e-07 1.4147852e-07
4.5143445e-08 -6.899151e-08 1.0546752e-07 3.1946715e-08 -1.0217659e-07 8.1910834e-08 -4.6415668e-08 9.49916e-08
0.61838484 -1.3123043 0.31891835 0.33286873 0.39753035 -9.636835e-07 -2.8523672e-07 -1.4268589
0.48176458 -0.0016656623 -0.86926067 0.49470732 1.1189138e-07 -5.856886e-07 7.641269e-08 -1.3797091
-0.73335296 0.96534204 -0.6650178 7.8806596e-07 -0.78024083 0.23893374 -0.99439776 -2.4567154e-05
-0.0022964808 -1.4777174e-07 0.99588263 -1.0855082e-07 -0.78320444 1.2216501 1.1584767 -1.2513936
2.7925884e-05 -0.00058738416 0.0002217423 -0.0008315716 -0.0006964625 -4.8641555e-06 -6.215061e-07 -0.0005858482
0.00028362477 -4.2579113e-06 -0.00058803795 0.0002504206 -3.9865604e-08 -4.2782167e-06 -5.9818774e-08 -0.00059299165
-0.00059180806 -0.0011711338 -0.00058547495 -3.535555e-07 -0.00058720453 0.00031885572 -0.00058500696 -5.7301077e-07
-1.1100943e-06 4.749409e-08 -0.0010294256 -2.3545653e-08 -0.00059309683 -0.0011190171 -0.0011696307 -0.00058438745
00000000: b238 41b7 3a6b 42b7 85ee 54b7 182c 74b7
00000010: ba4b 97b7 bb30 18b3 da23 92b3 393c 52b7
00000020: 0a48 00b7 bab4 bbb4 c20f 44b7 34c2 a034
00000030: d152 c133 6c2c 59b3 31b1 4533 ec98 4bb7
00000040: d952 dbb6 86e8 58b7 5d14 deb6 1728 c4b4
00000050: b322 47b7 7666 3ab7 ae6f 51b7 e10d a3b4
00000060: 4195 84b5 9173 8333 8326 e233 57a1 ef32
00000070: ce8f efb6 77ef d9b6 7a5c 06b7 24e1 5fb7
00000080: 5daa 1e3f aab7 a7bf c286 a63e 4408 ab3e
00000090: cb4d cc3e 6d71 e333 9a27 f232 b57a b8bf
000000a0: 8810 f83e 9627 c9ba 9865 5dbf 61a7 fd3e
000000b0: 041d fe33 02cb 4a31 5dac e3b0 1061 b0bf
000000c0: 97d1 3dbf 2544 763f 1b14 2bbf ef45 8cb5
000000d0: 6411 49bf fd01 753e c107 7fbf a37f 8bb7
000000e0: 16d1 16bb f055 b8b2 0520 7f3f a8b0 8732
000000f0: 17f3 48bf dab4 9c3f 4981 943f 6e63 a0bf
00000100: 7ef8 1d3f ec29 a7bf 3891 a63e 8190 aa3e
00000110: 4f43 cc3e d473 8ab6 9a59 9fb3 a7f2 b6bf
00000120: 22c0 f53e b5f4 c7ba e2e7 5ebf bb2c fb3e
00000130: 2fcf 9533 c338 45b6 afb6 20b4 38b4 b0bf
00000140: fe30 3cbf cc35 773f 69be 28bf 3606 a9b5
00000150: 5232 46bf cfbb 743e 925a 7fbf dbc0 84b7
00000160: d68c 15bb ac1b 1834 1ad2 7d3f 8787 1c34
00000170: 5917 46bf 2f3c 9c3f ff9b 943f 4de3 a0bf
00000180: 2e34 213f 6549 a8bf a180 a53e 3c9b ac3e
00000190: ac4d cd3e 8682 34b8 9c12 3537 26c8 b8bf
000001a0: 4f51 f83e 2896 b9ba da12 5fbf 2038 013f
000001b0: 968c 9433 32b0 85b8 b1c9 2031 57d3 b0bf
000001c0: 4b64 3ebf b29f 793f 60da 2cbf f51b a237
000001d0: 6424 4cbf 3fd0 763e 5e3b 80bf 81eb 8d37
000001e0: 03e9 16bb bcc6 2834 109f 803f 4f4d a532
000001f0: 7e56 4bbf 9311 9d3f 9026 973f 700e a2bf
00000200: 00f6 203f 4fdc a5bf fb3d a93e f4a1 ab3e
00000210: b8b1 cd3e 9d8b 60b7 7024 4d38 12a8 b7bf
00000220: 32f3 f63e 4184 a5ba b698 5abf d626 003f
00000230: 553c 6633 b9f3 9cb6 a546 a8b3 84f0 afbf
00000240: 55b0 3abf f3db 7c3f e69a 2bbf c603 2439
00000250: b1a3 48bf 3079 763e 4b3f 7ebf 0cfd d638
00000260: f042 15bb 927d a7b3 ff96 7f3f 108d b033
00000270: 2f1c 47bf 82d8 9c3f 886c 963f ea70 a0bf
00000280: bc5f e1b3 9a52 982f f9e4 06b4 e540 1ab4
00000290: 651c 3bb3 4298 99b3 f671 5ab2 d089 01b4
000002a0: e1c8 dbb3 3293 c033 0005 0eb4 5d54 4032
000002b0: 57ea 3fb3 1889 af33 e4ee 9632 beee 2032
000002c0: f86b 3eb3 7ec0 0434 0af3 8633 1089 c333
000002d0: 0bfb 13b4 0fea 28b4 ffb4 23b4 52e9 1734
000002e0: bee3 4133 7c28 94b3 627d e233 c935 0933
000002f0: 2d6c dbb3 f5e6 af33 915a 47b3 2ffe cb33
00000300: 784e 1e3f 96f9 a7bf 4449 a33e c56d aa3e
00000310: 1989 cb3e ea57 81b5 a322 99b4 50a3 b6bf
00000320: d9a9 f63e 5a52 daba de87 5ebf 474a fd3e
00000330: f048 f033 3738 1db5 5218 a433 4f9a b0bf
00000340: 05bd 3bbf a820 773f 9b3e 2abf 7b8b 5335
00000350: ddbd 47bf 0cab 743e da90 7ebf 9015 ceb7
00000360: 8e80 16bb 30ab 1eb4 2af2 7e3f 721c e9b3
00000370: 1680 48bf 085f 9c3f f748 943f aa2d a0bf
00000380: 6142 ea37 affa 19ba 7f83 6839 d3fd 59ba
00000390: cf92 36ba c736 a3b6 93d5 26b5 9b93 19ba
000003a0: 79b3 9439 2edf 8eb6 8f26 1aba e24a 8339
000003b0: b238 2bb3 9a8d 8fb6 b875 80b3 ff72 1bba
000003c0: 9123 1bba bb80 99ba 8f7a 19ba 4cd0 bdb4
000003d0: a1ee 19ba 172c a739 275b 19ba 00d1 19b5
000003e0: 8dfe 94b5 4efc 4b33 cbed 86ba 7041 cab2
000003f0: 0e7a 1bba fcab 92ba 4b4e 99ba 9431 19ba

layer2.bias f4 [32]
-1.8565579e-05 0.057050895 0.057075523 0.05693691 0.053294905 -6.7981965e-08 0.05709636 -0.0006014428
-8.160265e-08 0.0024966188 0.05785584 0.056802813 0.001953958 0.91889393 0.0052393097 -5.855845e-08
-0.003075363 -4.4765414e-07 -0.002948056 0.0028330702 0.046875432 -1.844725e-07 -5.5429847e-08 0.052625142
1.94125 0.0023292731 -6.891875e-07 0.05910696 0.04007754 0.05829292 -2.3219842e-07 0.016995396
00000000: 47bd 9bb7 33ae 693d 06c8 693d ad36 693d
00000010: c24b 5a3d 7bfd 91b3 dfdd 693d 25aa 1dba
00000020: 883d afb3 509e 233b 3ffa 6c3d 11aa 683d
00000030: fa0d 003b a23c 6b3f 84ae ab3b b281 7bb3
00000040: 088c 49bb 1e55 f0b4 2c34 41bb 08ab 393b
00000050: 7400 403d 6a13 46b4 c311 6eb3 768d 573d
00000060: e17a f83f b8a6 183b 9b00 39b5 241a 723d
00000070: 5928 243d 8fc4 6e3d 3752 79b4 ee39 8b3c

layer3.weight f4 [3, 32]
3.014625e-07 -1.8904587 -1.8919818 -1.888117 -1.8923963 -1.00821495e-07 -1.8906958 2.4854446e-06
6.722603e-08 -2.3267186 -1.89149 -1.889119 -2.053073 -2.0497231 -2.0715823 1.4970195e-05
0.019068724 9.880333e-09 0.0099087935 -2.052276 5.072389 -4.2903565e-08 -1.4406762e-08 -1.8905326
-2.158726 4.490849 -1.0199061e-06 -1.9045935 -2.1166291 -1.9049522 -1.9008239e-07 -1.9992812
-6.7226624e-06 -2.7036402 -2.7018292 -2.7024403 -2.7000403 5.2371664e-08 -2.70059 -5.290274e-06
1.0194368e-07 -2.9798665 -2.697806 -2.7067163 -3.281896 -2.0947096 -3.247297 2.112967e-05
0.0067865336 1.8023772e-07 -0.0069025005 -3.2452543 2.9136693 8.768813e-08 1.5735363e-07 -2.7234695
-0.95488876 2.9827278 -2.3434075e-06 -2.6874106 -2.8413882 -2.7078884 4.026416e-08 -3.3196228
-3.3693632e-07 -3.9089756 -3.907809 -3.9146266 -3.9459777 5.1268283e-09 -3.9107394 -0.00019625785
1.9229837e-08 -2.4685173 -3.8873587 -3.9403143 -3.7960937 -0.83410203 -3.5793254 2.0832435e-06
-0.015736926 9.624308e-08 0.027971482 -3.714153 1.2760335 5.9817054e-08 8.742361e-08 -3.9771028
-0.4616559 1.5172982 -8.9401874e-07 -3.8139012 -3.0990658 -3.8549647 -4.891736e-08 -3.9571834
00000000: b1d8 a134 8dfa f1bf 762c f2bf d1ad f1bf
00000010: 0b3a f2bf 3483 d8b3 5202 f2bf 9dcb 2636
00000020: e75d 9033 f5e8 14c0 581c f2bf a7ce f1bf
00000030: 8c65 03c0 aa2e 03c0 ce94 04c0 7f28 7b37
00000040: 0336 9c3c 2abe 2932 7e58 223c 7d58 03c0
00000050: 0351 a240 f844 38b3 9c81 77b2 f9fc f1bf
00000060: 9128 0ac0 09b5 8f40 b5e3 88b5 b8c9 f3bf
00000070: da76 07c0 79d5 f3bf 7319 4cb4 72e8 ffbf
00000080: 3b93 e1b6 7108 2dc0 c5ea 2cc0 c8f4 2cc0
00000090: 76cd 2cc0 41ef 6033 77d6 2cc0 1c83 b1b6
000000a0: 21ec da33 22b6 3ec0 daa8 2cc0 d73a 2dc0
000000b0: 960a 52c0 b90f 06c0 b7d3 4fc0 9f3f b137
000000c0: 9261 de3b 5e87 4134 5f2e e2bb 3fb2 4fc0
000000d0: 8f79 3a40 0f4f bc33 09f5 2834 534d 2ec0
000000e0: 9773 74bf 03e5 3e40 6f43 1db6 89fe 2bc0
000000f0: 4ed9 35c0 0b4e 2dc0 e9ee 2c33 b374 54c0
00000100: 2de4 b4b4 a82c 7ac0 8b19 7ac0 3e89 7ac0
00000110: e68a 7cc0 0f28 b031 8e49 7ac0 91ca 4db9
00000120: dc2e a532 30fc 1dc0 7cca 78c0 1c2e 7cc0
00000130: 33f3 72c0 b687 55bf ab13 65c0 dacd 0b36
00000140: baea 80bc 31ae ce33 7324 e53c afb4 6dc0
00000150: 1155 a33f c674 8033 a3bd bb33 da88 7ec0
00000160: 2a5e ecbe d436 c23f 80fc 6fb5 f516 74c0
00000170: 1857 46c0 beb7 76c0 3519 52b3 7e42 7dc0

layer3.bias f4 [3]
-2.6090446 -2.2153435 -0.34005728
00000000: 96fa 26c0 30c8 0dc0 fd1b aebe
